data.pth (torch, 5809 bytes, 6 tensors)

l1.weight f4 [8, 54]
0	0xbdc1b570	-0.094584346
1	0x3dc09f7c	0.09405419
2	0xbd162972	-0.03666062
3	0x3c1c6460	0.009545416
4	0xbdef74cc	-0.11692199
5	0xbe089e39	-0.13341607
6	0xbbab33a9	-0.005224664
7	0xbd8c2396	-0.06842725
8	0xbdbbc97a	-0.09169288
9	0xbd09d1f0	-0.033647478
10	0xbc714770	-0.014726505
11	0xbdf436a0	-0.119244814
12	0xbc273510	-0.010205522
13	0x3d01a416	0.031650625
14	0x3de046fe	0.10951041
15	0xbdb47c82	-0.088128105
16	0xbcc925fc	-0.024554245
17	0x3ce162a8	0.027512863
18	0x3ba12460	0.0049176663
19	0x3d22d3a0	0.039752603
20	0x3df29e74	0.11846629
21	0xbd7d6a02	-0.061868675
22	0x3dbfaf49	0.09359605
23	0x3d7bad78	0.06144473
24	0xbe0b3f61	-0.13598396
25	0x3db360b0	0.08758676
26	0xbd7733d0	-0.060352147
27	0xbc91c3f8	-0.01779364
28	0x3d7921a0	0.060823083
29	0x3d3575a4	0.044301644
30	0x3d532298	0.051546663
31	0x3d85e3f5	0.0653762
32	0x3d2eb01c	0.04264842
33	0xbdbca4aa	-0.09211095
34	0x3cd7d760	0.026347816
35	0x3d5c34ec	0.053761408
36	0x3ce547b0	0.027988285
37	0x3d22b598	0.039723963
38	0x3c7a84b0	0.015290424
39	0x3dea5cc4	0.11443475
40	0xbd10d37e	-0.035357945
41	0x3d0492e0	0.032366633
42	0xbd193525	-0.0374042
43	0xbdd7ecf7	-0.10543244
44	0xbd803d9d	-0.06261752
45	0xbd554528	-0.052067906
46	0xbdef19ae	-0.1167482
47	0xbe001679	-0.12508573
48	0xbd3462b0	-0.04403943
49	0x3c7a37d0	0.015272096
50	0x3d627d7c	0.055295452
51	0x3df06850	0.11738646
52	0x3d8f6172	0.07001008
53	0xbe061496	-0.1309379
54	0xbd167506	-0.036732696
55	0x3ea33796	0.31878346
56	0x3ed21ef8	0.41039252
57	0xbe86f40c	-0.26358068
58	0xbd843a05	-0.06456379
59	0x3f376942	0.71644986
60	0x3edbbe16	0.42918462
61	0x3eaea38f	0.3410916
62	0x3ee9c02b	0.45654425
63	0x3efcdd84	0.49387753
64	0xbe75d7e8	-0.24008143
65	0xbe679387	-0.22614871
66	0x3e661646	0.22469434
67	0xbe470c5f	-0.19438313
68	0x3e7d891f	0.24759339
69	0xbe8f4bd1	-0.2798753
70	0xbe9e1979	-0.3087881
71	0x3f3bfa24	0.7342856
72	0xbeb92039	-0.36157396
73	0xbf0c7695	-0.5486844
74	0x3d2330ed	0.03984158
75	0xbf0c8309	-0.54887444
76	0xbf0c721d	-0.54861623
77	0xbefed6ce	-0.49773258
78	0x3d70720e	0.05870252
79	0xbd017bf7	-0.031612363
80	0xbe43287c	-0.19058412
81	0x3eb535bf	0.35392568
82	0xbb103404	-0.002200366
83	0x3ec91e56	0.39280957
84	0x3f0b1599	0.5432983
85	0xbdb3fca4	-0.08788422
86	0x3d6a922c	0.057268307
87	0x3f19177a	0.5980145
88	0x3ed6d4d3	0.41959247
89	0xbe1a80b9	-0.15088166
90	0xbdb6e8d6	-0.08931129
91	0x3ea8ec85	0.3299295
92	0x3efe449a	0.49661714
93	0x3eabb77e	0.3353843
94	0x3eea03ba	0.45705968
95	0xbf030595	-0.5118039
96	0xbc72bef3	-0.014816034
97	0x3e88e090	0.26733828
98	0x3e5d204e	0.21594355
99	0x3ebc9b11	0.36837056
100	0xbe22f80c	-0.15914935
101	0x3db5d056	0.088776276
102	0xbe81bd4b	-0.25339732
103	0xbecef8ca	-0.40424186
104	0xbe004c42	-0.1252909
105	0xbe9bbcdf	-0.30417535
106	0x3efc6b62	0.49300677
107	0x3e37f68f	0.17965148
108	0x3f169cf9	0.5883327
109	0x3e92ddae	0.28684753
110	0xbe4235f2	-0.18965891
111	0x3da20021	0.07910181
112	0x3d93c7b1	0.072158225
113	0xbed86436	-0.42263955
114	0xbe1f473c	-0.15554518
115	0xbe2761d3	-0.1634591
116	0xbefcdf1a	-0.49388963
117	0xbe7de990	-0.24796128
118	0x3ebeb70a	0.37249023
119	0xbd9f6b07	-0.07784086
120	0xbe9f825a	-0.31154138
121	0x3c1b5315	0.0094802575
122	0x3e07e2ce	0.13270113
123	0x3e30e373	0.17274265
124	0x3e2184d6	0.15773329
125	0xbefba388	-0.49148202
126	0xbe96bf17	-0.29442665
127	0x3e3ad47b	0.18245117
128	0x3ec91629	0.3927472
129	0x3ea1eb37	0.31624767
130	0x3e713fec	0.2355954
131	0x3ea2839c	0.31741035
132	0x3c370ec4	0.011172954
133	0x3e173d3e	0.14769456
134	0xbe833248	-0.256243
135	0xbd1856cc	-0.03719215
136	0xbde336a6	-0.11094408
137	0x3e8214a8	0.25406384
138	0xbe3d216c	-0.1846978
139	0xbe0c6110	-0.13708901
140	0x3e7342d8	0.23755968
141	0xbeb5550b	-0.35416445
142	0x3b65596a	0.0034995922
143	0x3e9f4309	0.3110583
144	0x3d304ec2	0.04304386
145	0xbf007167	-0.5017304
146	0xbdeb4925	-0.114885606
147	0xbe370698	-0.17873609
148	0xbed739b3	-0.4203621
149	0xbeb4bbf3	-0.35299644
150	0xbe183e24	-0.14867455
151	0x3d9091c7	0.07059055
152	0xbe320104	-0.173832
153	0xbde43a34	-0.11143914
154	0x3f8a88d0	1.0823002
155	0x3ea26877	0.31720325
156	0xbdffb522	-0.1248572
157	0xbe858bb7	-0.26083156
158	0x3df48c08	0.11940771
159	0xbd8139b1	-0.06309832
160	0xbe4cc4a8	-0.19996893
161	0x3e93488d	0.2876629
162	0xbec6cd1e	-0.38828367
163	0x3f3d9ab3	0.7406418
164	0xbe163bef	-0.146713
165	0x3f0f329c	0.559366
166	0x3ec83868	0.39105535
167	0xbf1e34f2	-0.6179954
168	0x3dc9545c	0.098305434
169	0xbe18a32f	-0.14906
170	0x3d68b889	0.05681661
171	0xbda8539d	-0.08219073
172	0x3f11e0cc	0.5698364
173	0x3f125128	0.57155085
174	0x3f32a40c	0.69781566
175	0x3f119bda	0.56878436
176	0x3f03a1c5	0.51418716
177	0x3ee3254a	0.44364387
178	0x3f18365a	0.59457934
179	0xbf1fbe63	-0.6239988
180	0x3e2cc753	0.16872911
181	0x3f433650	0.7625475
182	0xbdae0f71	-0.08499039
183	0x3f482973	0.78188246
184	0x3f4addce	0.792447
185	0x3f43742f	0.7634916
186	0x3ea22802	0.3167115
187	0x3ed490be	0.4151668
188	0x3ea06772	0.31328923
189	0x3f0f0b80	0.5587692
190	0x3e2baae0	0.16764402
191	0x3ee1d448	0.4410727
192	0xbed5ff2b	-0.4179624
193	0x3f21fbd0	0.6327486
194	0xbe33219c	-0.1749329
195	0xbd1ad81d	-0.037803758
196	0x3f0a5c4a	0.5404707
197	0x3ee84cbd	0.45371047
198	0x3dfbbac8	0.12291485
199	0x3dbc37d9	0.091903396
200	0x3d7cb0c3	0.06169201
201	0x3e5c72c2	0.21528152
202	0xbea3ce8f	-0.3199353
203	0x3e9ab6c8	0.30217576
204	0x3ec4f75d	0.38469973
205	0x3f14de73	0.5815193
206	0x3edaeb4b	0.4275764
207	0x3f3facb5	0.74872905
208	0xbf5a19f2	-0.8519584
209	0xbe7d520d	-0.24738331
210	0x3f15b492	0.58478653
211	0x3eaabb78	0.33346152
212	0x3ea4dcd8	0.3219974
213	0x3e6e1cd4	0.23253185
214	0xbc373e8d	-0.011184347
215	0x3e14f20b	0.14545457
216	0xbec59407	-0.38589498
217	0xbe0d3f03	-0.13793568
218	0x3f0c1019	0.54712063
219	0x3d9367d9	0.07197542
220	0x3f25e6e8	0.6480546
221	0x3f2bd5dd	0.67123204
222	0x3e90383f	0.28167912
223	0x3f0449b0	0.5167494
224	0x3f45e5f1	0.7730399
225	0x3eead890	0.4586835
226	0x3ef6f9f9	0.4823759
227	0xbe1f5bf4	-0.15562421
228	0x3f1675f6	0.58773744
229	0xbe19a6d5	-0.15005048
230	0xbd42de78	-0.047575444
231	0xbe088dc3	-0.13335328
232	0x3ecad608	0.39616418
233	0x3f3dbc4b	0.7411544
234	0x3f0ea2c8	0.55717134
235	0x3e7f72f4	0.24946195
236	0xbe101171	-0.14069153
237	0x3e93e012	0.2888189
238	0x3e5a907d	0.2134418
239	0xbec0319c	-0.3753785
240	0xbe04a2f2	-0.12952784
241	0x3dbb2267	0.09137421
242	0x3f10822b	0.5644862
243	0xbcb1fa5e	-0.02172583
244	0x3ef7b6be	0.4838161
245	0xbe82f86e	-0.25580162
246	0x3ee438df	0.4457464
247	0xbe719c30	-0.23594737
248	0x3d81fa5b	0.0634658
249	0x3f151b80	0.58245087
250	0x3d9732f4	0.073827654
251	0xbe806b64	-0.25081933
252	0x3eb2d295	0.34926286
253	0x3f2b4789	0.6690603
254	0x3e9512c5	0.29115883
255	0x3ecafc32	0.39645535

l1.bias f4 [8]
0	0xbdc19a2f	-0.09453236
1	0x3f0c747c	0.5486524
2	0x3f233d65	0.63765556
3	0x3f389bf5	0.7211297
4	0x3f36cf93	0.71410483
5	0x3ea9bc9f	0.3315172
6	0x3f401d0d	0.7504433
7	0x3f607ffb	0.8769528

l2.weight f4 [8, 8]
0	0xbe929368	-0.28628087
1	0xbf6fb9b8	-0.9364276
2	0x3f811d84	1.0087132
3	0x3ea19136	0.315561
4	0xbf282573	-0.6568214
5	0xbf5b86d5	-0.8575261
6	0x3f06fb7b	0.5272748
7	0x3f4729e6	0.77798307
8	0xbe772c47	-0.24137984
9	0xbf84ffaa	-1.0390522
10	0x3eca2ab0	0.39485693
11	0x3eded699	0.435231
12	0x3e809dc4	0.25120366
13	0xbf1973cb	-0.5994231
14	0x3f7a4f24	0.9777701
15	0xbd30913c	-0.043107256
16	0x3e1b0f72	0.1514261
17	0x3f898d82	1.074631
18	0xbf8eb98b	-1.1150373
19	0x3dd85550	0.10563147
20	0x3fd22867	1.641858
21	0xbf035592	-0.51302445
22	0x3f6c415e	0.9228724
23	0x3e6c59d4	0.23081142
24	0xbd8bc7c3	-0.06825211
25	0x3eda0a5e	0.42586035
26	0xbd5624fa	-0.052281357
27	0x3fdfea34	1.7493348
28	0x3f6ce0a9	0.92530304
29	0x3f55b04c	0.8347213
30	0xbe3e9ec6	-0.18615255
31	0xbe8f67fa	-0.28009015
32	0x3e257cc2	0.16160873
33	0x3f0a5358	0.5403342
34	0x3fa03b79	1.251815
35	0x3dc8be50	0.09801924
36	0xbf0cabb2	-0.54949486
37	0xbe2869cf	-0.16446613
38	0x3ee2d890	0.4430585
39	0x3fa746e8	1.3068514
40	0x3e84a839	0.25909594
41	0x3f281dca	0.65670455
42	0x3f6e0ba0	0.9298649
43	0x3ef42704	0.47686017
44	0xbe3ecca7	-0.18632756
45	0xbf3d2261	-0.73880583
46	0xbea3d8ad	-0.32001248
47	0x3fa3c93f	1.279579
48	0xbdd5532f	-0.10416257
49	0xbec09966	-0.37617034
50	0x3f88e44f	1.0694674
51	0xbecff164	-0.40613854
52	0x3d711cb4	0.058865264
53	0xbf237fa3	-0.63866633
54	0x3f9ab3dc	1.2086139
55	0x3eeb471d	0.45952693
56	0xbcf82a92	-0.030293737
57	0xbf5bf3cb	-0.85918874
58	0x3cd32c1c	0.025777869
59	0x3fc35764	1.5261045
60	0xbe58f2ad	-0.21186323
61	0x3d1763c0	0.036960363
62	0x3f815a3d	1.0105664
63	0xbe081565	-0.13289411

l2.bias f4 [8]
0	0x3dcf1ac3	0.10112526
1	0x3dbb6162	0.09149434
2	0x3f0971a3	0.5368902
3	0x3ebbbd94	0.36668074
4	0x3edab9ff	0.4272003
5	0x3d8ce8d2	0.068803445
6	0x3f10d41b	0.5657365
7	0x3e4225a9	0.18959679

l3.weight f4 [7, 8]
0	0xbfb236d7	-1.3922986
1	0xbe94067d	-0.289112
2	0xbf8df9ec	-1.1091895
3	0x3f090737	0.53526634
4	0x3deb7200	0.11496353
5	0xbf9599db	-1.1687578
6	0xbf54fbfe	-0.8319701
7	0x3f4bb15e	0.79567516
8	0xbf2fb607	-0.68637127
9	0xbf985583	-1.1901096
10	0xbea2ac13	-0.31771907
11	0x3e2fbfc9	0.17163004
12	0x3e3a057d	0.18166156
13	0x3f424d17	0.7589888
14	0xbf900372	-1.1251051
15	0xbc5c6b18	-0.0134532675
16	0xbfb6c837	-1.4279851
17	0xbf1268e2	-0.5719129
18	0x3f388579	0.72078663
19	0xbf395e36	-0.7240938
20	0x3edaeeec	0.42760408
21	0x3e205431	0.15657116
22	0x3eb425c7	0.35185072
23	0xbf742c89	-0.95380455
24	0x3ea4cafe	0.3218612
25	0x3eeaad58	0.45835376
26	0xbec3b176	-0.3822133
27	0xbeaa4797	-0.33257744
28	0x3e02b0cc	0.12762755
29	0xbebc07b8	-0.3672464
30	0x3ec08d49	0.37607792
31	0x3f0a3f0c	0.5400245
32	0xbf86102b	-1.0473684
33	0x3f3691b8	0.713161
34	0x3e997f8c	0.29980123
35	0xbd33f7d2	-0.04393751
36	0xbfb7eb26	-1.4368637
37	0xbfbee0cb	-1.4912351
38	0x3e6d361e	0.23165175
39	0x3e9c949b	0.30582127
40	0xbeb65142	-0.3560887
41	0xbf7d809c	-0.9902437
42	0x3ee236d2	0.4418245
43	0x3f6d859e	0.9278201
44	0xbf67222c	-0.9028652
45	0xbf77595f	-0.96620744
46	0xbf4b1665	-0.79331046
47	0xbf7e788c	-0.9940269
48	0x3f37b194	0.7175534
49	0xbc93ec0a	-0.018056888
50	0xbf84360b	-1.0328993
51	0xbfabb8af	-1.3415736
52	0x3f2043e0	0.6260357
53	0x3e5a11d9	0.21295871
54	0x3f1132a7	0.56717914
55	0xbf221aa1	-0.6332188

l3.bias f4 [7]
0	0xbdf3b3de	-0.11899541
1	0xbe806504	-0.2507707
2	0xbe1c8a3b	-0.15287106
3	0xbdfef383	-0.1244879
4	0x3d49c329	0.049258385
5	0x3983cbb7	0.00025138046
6	0xbea0e8b9	-0.31427553
